…
that all of the encoder layers have exactly the same structure. The inputs and
outputs of each 
TransformerEncoderLayer
 have the same shape, so this
ensures that you can stack them without reshaping linear layers between
them. Transformer layers are like the floors of a skyscraper or a child’s stack
of wooden blocks. Each level has exactly the same 3D shape.
TranslationTransformer(
  (encoder): TransformerEncoder(
    (layers): ModuleList(
      (0-5): 6 x TransformerEncoderLayer(
        (self_attn): MultiheadAttention(
          (out_proj): NonDynamicallyQuantizableLinear(
            in_features=512, out_features=512, bias=True)
        )
        (linear1): Linear(
          in_features=512, out_features=2048, bias=True)
        (dropout): Dropout(p=0.1, inplace=False)
        (linear2): Linear(
          in_features=2048, out_features=512, bias=True)
        (norm1): LayerNorm((512,), eps=1e-05, elementwise_affine=True)
        (norm2): LayerNorm((512,), eps=1e-05, elementwise_affine=True)
        (dropout1): Dropout(p=0.1, inplace=False)
        (dropout2): Dropout(p=0.1, inplace=False)
      )
    )
    (norm): LayerNorm((512,), eps=1e-05, elementwise_affine=True)
  )
...
Notice that you set the sizes of your source and target vocabularies in the
constructor. Also, you pass the indices for the source and target padding
tokens for the model to use in preparing the source, targets, and associated
masking sequences. Now that you have the model defined, take a moment to
do a quick sanity check to make sure there are no obvious coding errors
…
transformer models and associated tasks on the site. To install the
transformers library, simply use 
pip install transformers
. Once installed,
import the BertModel from transformers using the 
BertModel.from_pre-
trained()
 API to load one by name. You can print a summary for the loaded
"bert-base-uncased" model in the listing that follows, to get an idea of the
architecture.
Listing 9.30 Pytorch summary of BERT architecture
>>> 
from
 
transformers
 
import
 
BertModel
>>> model = BertModel.from_pre-trained(
'
bert-base-uncased
'
)
>>> print(model)
BertModel(
  (embeddings): BertEmbeddings(
    (word_embeddings): Embedding(30522, 768, padding_idx=0)
    (position_embeddings): Embedding(512, 768)
    (token_type_embeddings): Embedding(2, 768)
    (LayerNorm): LayerNorm((768,), eps=1e-12, elementwise_affine=True)
    (dropout): Dropout(p=0.1, inplace=False)
  )
  (encoder): BertEncoder(
    (layer): ModuleList(
      (0): BertLayer(
        (attention): BertAttention(
          (self): BertSelfAttention(
            (query): Linear(in_features=768, out_features=768, bias=True)
            (key): Linear(in_features=768, out_features=768, bias=True)
            (value): Linear(in_features=768, out_features=768, bias=True)
            (dropout): Dropout(p=0.1, inplace=False)
          )
          (output): BertSelfOutput(
            (dense): Linear(in_features=768, out_features=768, bias=True)
            (LayerNorm): LayerNorm((768,), eps=1e-12,
 elementwise_affine=True)
            (dropout): Dropout(p=0.1, inplace=False)
          )
        )
        (intermediate): BertIntermediate(
          (dense): Linear(in_features=768, out_features=3072, bias=True)
        )
        (output): BertOutput(
          (dense): Linear(in_features=3072, out_features=768, bias=True)
          (LayerNorm): LayerNorm((768,), eps=1e-12, elementwise_affine=True)
          (dropout): Dropout(p=0.1, inplace=False)
        )
      ... # #1
      (11): BertLayer(
        (attention): BertAttention(...)
        (intermediate): BertIntermediate(
          (dense): Linear(in_features=768, out_features=3072, bias=True)
        )
        (output): BertOutput(
          (dense): Linear(in_features=3072, out_features=768, bias=True)
          (LayerNorm): LayerNorm((768,), eps=1e-12, elementwise_affine=True)
          (dropout): Dropout(p=0.1, inplace=False)
  ) ) ) )
  (pooler): BertPooler(
    (dense): Linear(in_features=768, out_features=768, bias=True)
    (activation): Tanh() ) )
After import a BERT model you can display its string representation to get a
summary of its structure. This is a good place to start if you are considering
designing your own custom bidirectional transformer. But in most cases, you
can use BERT directly to create encodings of English text that accurately
represent the meaning of most text. A pretrained BERT model is all you may
…
